…
Warming up...
Start benchmark...
Prefix Length :988160, Decode Length :1, inference time:0.009292335867881776s
>>>> Flash Attention installed
>>>> Flash RoPE installed
capturing graph...
Warming up...
Start benchmark...
Prefix Length :989184, Decode Length :1, inference time:0.009304656744003296s
>>>> Flash Attention installed
>>>> Flash RoPE installed
capturing graph...
Warming up...
Start benchmark...
Prefix Length :990208, Decode Length :1, inference time:0.009313792943954468s
>>>> Flash Attention installed
>>>> Flash RoPE installed
LlamaForCausalLM(
  (model): LlamaModel(
    (embed_tokens): Embedding(32000, 768, padding_idx=1)
    (layers): ModuleList(
      (0-1): 2 x LlamaDecoderLayer(
        (self_attn): LlamaAttention(
          (q_proj): Linear(in_features=768, out_features=768, bias=False)
          (k_proj): Linear(in_features=768, out_features=768, bias=False)
          (v_proj): Linear(in_features=768, out_features=768, bias=False)
          (o_proj): Linear(in_features=768, out_features=768, bias=False)
          (rotary_emb): LlamaRotaryEmbedding()
        )
        (mlp): LlamaMLP(
          (gate_proj): Linear(in_features=768, out_features=3072, bias=False)
          (up_proj): Linear(in_features=768, out_features=3072, bias=False)
          (down_proj): Linear(in_features=3072, out_features=768, bias=False)
          (act_fn): SiLU()
        )
        (input_layernorm): LlamaRMSNorm()
        (post_attention_layernorm): LlamaRMSNorm()
      )
    )
    (norm): LlamaRMSNorm()
  )
  (lm_head): Linear(in_features=768, out_features=32000, bias=False)
)
capturing graph...
Warming up...
Start benchmark...
Prefix Length :991232, Decode Length :1, inference time:0.009329057574272156s
>>>> Flash Attention installed
>>>> Flash RoPE installed
LlamaForCausalLM(
  (model): LlamaModel(
    (embed_tokens): Embedding(32000, 768, padding_idx=1)
    (layers): ModuleList(
      (0-1): 2 x LlamaDecoderLayer(
        (self_attn): LlamaAttention(
          (q_proj): Linear(in_features=768, out_features=768, bias=False)
          (k_proj): Linear(in_features=768, out_features=768, bias=False)
          (v_proj): Linear(in_features=768, out_features=768, bias=False)
          (o_proj): Linear(in_features=768, out_features=768, bias=False)
          (rotary_emb): LlamaRotaryEmbedding()
        )
        (mlp): LlamaMLP(
          (gate_proj): Linear(in_features=768, out_features=3072, bias=False)
          (up_proj): Linear(in_features=768, out_features=3072, bias=False)
          (down_proj): Linear(in_features=3072, out_features=768, bias=False)
          (act_fn): SiLU()
        )
        (input_layernorm): LlamaRMSNorm()
        (post_attention_layernorm): LlamaRMSNorm()
      )
    )
    (norm): LlamaRMSNorm()
  )
  (lm_head): Linear(in_features=768, out_features=32000, bias=False)
)
capturing graph...
Warming up...
Start benchmark...
Prefix Length :992256, Decode Length :1, inference time:0.009339516878128052s
>>>> Flash Attention installed
>>>> Flash RoPE installed
LlamaForCausalLM(
  (model): LlamaModel(
    (embed_tokens): Embedding(32000, 768, padding_idx=1)
    (layers): ModuleList(
      (0-1): 2 x LlamaDecoderLayer(
        (self_attn): LlamaAttention(
          (q_proj): Linear(in_features=768, out_features=768, bias=False)
          (k_proj): Linear(in_features=768, out_features=768, bias=False)
          (v_proj): Linear(in_features=768, out_features=768, bias=False)
          (o_proj): Linear(in_features=768, out_features=768, bias=False)
          (rotary_emb): LlamaRotaryEmbedding()
        )
        (mlp): LlamaMLP(
          (gate_proj): Linear(in_features=768, out_features=3072, bias=False)
          (up_proj): Linear(in_features=768, out_features=3072, bias=False)
          (down_proj): Linear(in_features=3072, out_features=768, bias=False)
          (act_fn): SiLU()
        )
        (input_layernorm): LlamaRMSNorm()
        (post_attention_layernorm): LlamaRMSNorm()
      )
    )
    (norm): LlamaRMSNorm()
  )
  (lm_head): Linear(in_features=768, out_features=32000, bias=False)
)
capturing graph...
Warming up...
Start benchmark...
Prefix Length :993280, Decode Length :1, inference time:0.009351770401000976s
>>>> Flash Attention installed
>>>> Flash RoPE installed
LlamaForCausalLM(
  (model): LlamaModel(
    (embed_tokens): Embedding(32000, 768, padding_idx=1)
    (layers): ModuleList(
      (0-1): 2 x LlamaDecoderLayer(
        (self_attn): LlamaAttention(
          (q_proj): Linear(in_features=768, out_features=768, bias=False)
          (k_proj): Linear(in_features=768, out_features=768, bias=False)
          (v_proj): Linear(in_features=768, out_features=768, bias=False)
          (o_proj): Linear(in_features=768, out_features=768, bias=False)
          (rotary_emb): LlamaRotaryEmbedding()
        )
        (mlp): LlamaMLP(
          (gate_proj): Linear(in_features=768, out_features=3072, bias=False)
          (up_proj): Linear(in_features=768, out_features=3072, bias=False)
          (down_proj): Linear(in_features=3072, out_features=768, bias=False)
          (act_fn): SiLU()
        )
        (input_layernorm): LlamaRMSNorm()
        (post_attention_layernorm): LlamaRMSNorm()
      )
    )
    (norm): LlamaRMSNorm()
  )
  (lm_head): Linear(in_features=768, out_features=32000, bias=False)
)
capturing graph...
Warming up...
Start benchmark...
Prefix Length :994304, Decode Length :1, inference time:0.009364523530006408s
>>>> Flash Attention installed
>>>> Flash RoPE installed
LlamaForCausalLM(
  (model): LlamaModel(
    (embed_tokens): Embedding(32000, 768, padding_idx=1)
    (layers): ModuleList(
      (0-1): 2 x LlamaDecoderLayer(
        (self_attn): LlamaAttention(
          (q_proj): Linear(in_features=768, out_features=768, bias=False)
          (k_proj): Linear(in_features=768, out_features=768, bias=False)
          (v_proj): Linear(in_features=768, out_features=768, bias=False)
          (o_proj): Linear(in_features=768, out_features=768, bias=False)
          (rotary_emb): LlamaRotaryEmbedding()
        )
        (mlp): LlamaMLP(
          (gate_proj): Linear(in_features=768, out_features=3072, bias=False)
          (up_proj): Linear(in_features=768, out_features=3072, bias=False)
          (down_proj): Linear(in_features=3072, out_features=768, bias=False)
          (act_fn): SiLU()
        )
        (input_layernorm): LlamaRMSNorm()
        (post_attention_layernorm): LlamaRMSNorm()
      )
    )
    (norm): LlamaRMSNorm()
  )
  (lm_head): Linear(in_features=768, out_features=32000, bias=False)
)
capturing graph...
Warming up...
Start benchmark...
Prefix Length :995328, Decode Length :1, inference time:0.009368600487709046s
>>>> Flash Attention installed
>>>> Flash RoPE installed
LlamaForCausalLM(
  (model): LlamaModel(
    (embed_tokens): Embedding(32000, 768, padding_idx=1)
    (layers): ModuleList(
      (0-1): 2 x LlamaDecoderLayer(
        (self_attn): LlamaAttention(
          (q_proj): Linear(in_features=768, out_features=768, bias=False)
          (k_proj): Linear(in_features=768, out_features=768, bias=False)
          (v_proj): Linear(in_features=768, out_features=768, bias=False)
          (o_proj): Linear(in_features=768, out_features=768, bias=False)
          (rotary_emb): LlamaRotaryEmbedding()
        )
        (mlp): LlamaMLP(
          (gate_proj): Linear(in_features=768, out_features=3072, bias=False)
          (up_proj): Linear(in_features=768, out_features=3072, bias=False)
          (down_proj): Linear(in_features=3072, out_features=768, bias=False)
          (act_fn): SiLU()
        )
        (input_layernorm): LlamaRMSNorm()
        (post_attention_layernorm): LlamaRMSNorm()
      )
    )
    (norm): LlamaRMSNorm()
  )
  (lm_head): Linear(in_features=768, out_features=32000, bias=False)
)
capturing graph...
Warming up...
Start benchmark...
Prefix Length :996352, Decode Length :1, inference time:0.009375691890716553s
>>>> Flash Attention installed
>>>> Flash RoPE installed
LlamaForCausalLM(
  (model): LlamaModel(
    (embed_tokens): Embedding(32000, 768, padding_idx=1)
    (layers): ModuleList(
      (0-1): 2 x LlamaDecoderLayer(
        (self_attn): LlamaAttention(
          (q_proj): Linear(in_features=768, out_features=768, bias=False)
          (k_proj): Linear(in_features=768, out_features=768, bias=False)
          (v_proj): Linear(in_features=768, out_features=768, bias=False)
          (o_proj): Linear(in_features=768, out_features=768, bias=False)
          (rotary_emb): LlamaRotaryEmbedding()
        )
        (mlp): LlamaMLP(
          (gate_proj): Linear(in_features=768, out_features=3072, bias=False)
          (up_proj): Linear(in_features=768, out_features=3072, bias=False)
          (down_proj): Linear(in_features=3072, out_features=768, bias=False)
          (act_fn): SiLU()
        )
        (input_layernorm): LlamaRMSNorm()
        (post_attention_layernorm): LlamaRMSNorm()
      )
    )
    (norm): LlamaRMSNorm()
  )
  (lm_head): Linear(in_features=768, out_features=32000, bias=False)
)
capturing graph...
Warming up...
Start benchmark...
Prefix Length :997376, Decode Length :1, inference time:0.009385945677757263s
>>>> Flash Attention installed
>>>> Flash RoPE installed
LlamaForCausalLM(
  (model): LlamaModel(
    (embed_tokens): Embedding(32000, 768, padding_idx=1)
    (layers): ModuleList(
      (0-1): 2 x LlamaDecoderLayer(
        (self_attn): LlamaAttention(
          (q_proj): Linear(in_features=768, out_features=768, bias=False)
          (k_proj): Linear(in_features=768, out_features=768, bias=False)
          (v_proj): Linear(in_features=768, out_features=768, bias=False)
          (o_proj): Linear(in_features=768, out_features=768, bias=False)
          (rotary_emb): LlamaRotaryEmbedding()
        )
        (mlp): LlamaMLP(
          (gate_proj): Linear(in_features=768, out_features=3072, bias=False)
          (up_proj): Linear(in_features=768, out_features=3072, bias=False)
          (down_proj): Linear(in_features=3072, out_features=768, bias=False)
          (act_fn): SiLU()
        )
        (input_layernorm): LlamaRMSNorm()
        (post_attention_layernorm): LlamaRMSNorm()
      )
    )
    (norm): LlamaRMSNorm()
  )
  (lm_head): Linear(in_features=768, out_features=32000, bias=False)
)
capturing graph...
Warming up...
Start benchmark...
Prefix Length :998400, Decode Length :1, inference time:0.009389379739761353s
>>>> Flash Attention installed
>>>> Flash RoPE installed
LlamaForCausalLM(
  (model): LlamaModel(
    (embed_tokens): Embedding(32000, 768, padding_idx=1)
    (layers): ModuleList(
      (0-1): 2 x LlamaDecoderLayer(
        (self_attn): LlamaAttention(
          (q_proj): Linear(in_features=768, out_features=768, bias=False)
          (k_proj): Linear(in_features=768, out_features=768, bias=False)
          (v_proj): Linear(in_features=768, out_features=768, bias=False)
          (o_proj): Linear(in_features=768, out_features=768, bias=False)
          (rotary_emb): LlamaRotaryEmbedding()
        )
        (mlp): LlamaMLP(
          (gate_proj): Linear(in_features=768, out_features=3072, bias=False)
          (up_proj): Linear(in_features=768, out_features=3072, bias=False)
          (down_proj): Linear(in_features=3072, out_features=768, bias=False)
          (act_fn): SiLU()
        )
        (input_layernorm): LlamaRMSNorm()
        (post_attention_layernorm): LlamaRMSNorm()
      )
    )
    (norm): LlamaRMSNorm()
  )
  (lm_head): Linear(in_features=768, out_features=32000, bias=False)
)
capturing graph...
Warming up...
Start benchmark...
Prefix Length :999424, Decode Length :1, inference time:0.009398972511291504s
>>>> Flash Attention installed
>>>> Flash RoPE installed
LlamaForCausalLM(
  (model): LlamaModel(
    (embed_tokens): Embedding(32000, 768, padding_idx=1)
    (layers): ModuleList(
      (0-1): 2 x LlamaDecoderLayer(
        (self_attn): LlamaAttention(
          (q_proj): Linear(in_features=768, out_features=768, bias=False)
          (k_proj): Linear(in_features=768, out_features=768, bias=False)
          (v_proj): Linear(in_features=768, out_features=768, bias=False)
          (o_proj): Linear(in_features=768, out_features=768, bias=False)
          (rotary_emb): LlamaRotaryEmbedding()
        )
        (mlp): LlamaMLP(
          (gate_proj): Linear(in_features=768, out_features=3072, bias=False)
          (up_proj): Linear(in_features=768, out_features=3072, bias=False)
          (down_proj): Linear(in_features=3072, out_features=768, bias=False)
          (act_fn): SiLU()
        )
        (input_layernorm): LlamaRMSNorm()
        (post_attention_layernorm): LlamaRMSNorm()
      )
    )
    (norm): LlamaRMSNorm()
  )
  (lm_head): Linear(in_features=768, out_features=32000, bias=False)
)
capturing graph...
Warming up...
Start benchmark...
Prefix Length :1000448, Decode Length :1, inference time:0.0094148850440979s
>>>> Flash Attention installed
>>>> Flash RoPE installed
LlamaForCausalLM(
  (model): LlamaModel(
    (embed_tokens): Embedding(32000, 768, padding_idx=1)
    (layers): ModuleList(
      (0-1): 2 x LlamaDecoderLayer(
        (self_attn): LlamaAttention(
          (q_proj): Linear(in_features=768, out_features=768, bias=False)
          (k_proj): Linear(in_features=768, out_features=768, bias=False)
          (v_proj): Linear(in_features=768, out_features=768, bias=False)
          (o_proj): Linear(in_features=768, out_features=768, bias=False)
          (rotary_emb): LlamaRotaryEmbedding()
        )
        (mlp): LlamaMLP(
          (gate_proj): Linear(in_features=768, out_features=3072, bias=False)
          (up_proj): Linear(in_features=768, out_features=3072, bias=False)
          (down_proj): Linear(in_features=3072, out_features=768, bias=False)
          (act_fn): SiLU()
        )
        (input_layernorm): LlamaRMSNorm()
        (post_attention_layernorm): LlamaRMSNorm()
      )
    )
    (norm): LlamaRMSNorm()
  )
  (lm_head): Linear(in_features=768, out_features=32000, bias=False)
)
capturing graph...
Warming up...
Start benchmark...
Prefix Length :1001472, Decode Length :1, inference time:0.009417122483253479s
>>>> Flash Attention installed
>>>> Flash RoPE installed
LlamaForCausalLM(
  (model): LlamaModel(
    (embed_tokens): Embedding(32000, 768, padding_idx=1)
    (layers): ModuleList(
      (0-1): 2 x LlamaDecoderLayer(
        (self_attn): LlamaAttention(
          (q_proj): Linear(in_features=768, out_features=768, bias=False)
          (k_proj): Linear(in_features=768, out_features=768, bias=False)
          (v_proj): Linear(in_features=768, out_features=768, bias=False)
          (o_proj): Linear(in_features=768, out_features=768, bias=False)
          (rotary_emb): LlamaRotaryEmbedding()
        )
        (mlp): LlamaMLP(
          (gate_proj): Linear(in_features=768, out_features=3072, bias=False)
          (up_proj): Linear(in_features=768, out_features=3072, bias=False)
          (down_proj): Linear(in_features=3072, out_features=768, bias=False)
          (act_fn): SiLU()
        )
        (input_layernorm): LlamaRMSNorm()
        (post_attention_layernorm): LlamaRMSNorm()
      )
    )
    (norm): LlamaRMSNorm()
  )
  (lm_head): Linear(in_features=768, out_features=32000, bias=False)
)
capturing graph...
Warming up...
Start benchmark...
Prefix Length :1002496, Decode Length :1, inference time:0.009432551860809326s
>>>> Flash Attention installed
>>>> Flash RoPE installed
LlamaForCausalLM(
  (model): LlamaModel(
    (embed_tokens): Embedding(32000, 768, padding_idx=1)
    (layers): ModuleList(
      (0-1): 2 x LlamaDecoderLayer(
        (self_attn): LlamaAttention(
          (q_proj): Linear(in_features=768, out_features=768, bias=False)
          (k_proj): Linear(in_features=768, out_features=768, bias=False)
          (v_proj): Linear(in_features=768, out_features=768, bias=False)
          (o_proj): Linear(in_features=768, out_features=768, bias=False)
          (rotary_emb): LlamaRotaryEmbedding()
        )
        (mlp): LlamaMLP(
          (gate_proj): Linear(in_features=768, out_features=3072, bias=False)
          (up_proj): Linear(in_features=768, out_features=3072, bias=False)
          (down_proj): Linear(in_features=3072, out_features=768, bias=False)
          (act_fn): SiLU()
        )
        (input_layernorm): LlamaRMSNorm()
        (post_attention_layernorm): LlamaRMSNorm()
      )
    )
    (norm): LlamaRMSNorm()
  )
  (lm_head): Linear(in_features=768, out_features=32000, bias=False)
)
capturing graph...
Warming up...
Start benchmark...
Prefix Length :1003520, Decode Length :1, inference time:0.009438973665237427s
>>>> Flash Attention installed
>>>> Flash RoPE installed
LlamaForCausalLM(
  (model): LlamaModel(
    (embed_tokens): Embedding(32000, 768, padding_idx=1)
    (layers): ModuleList(
      (0-1): 2 x LlamaDecoderLayer(
        (self_attn): LlamaAttention(
          (q_proj): Linear(in_features=768, out_features=768, bias=False)
          (k_proj): Linear(in_features=768, out_features=768, bias=False)
          (v_proj): Linear(in_features=768, out_features=768, bias=False)
          (o_proj): Linear(in_features=768, out_features=768, bias=False)
          (rotary_emb): LlamaRotaryEmbedding()
        )
        (mlp): LlamaMLP(
          (gate_proj): Linear(in_features=768, out_features=3072, bias=False)
          (up_proj): Linear(in_features=768, out_features=3072, bias=False)
          (down_proj): Linear(in_features=3072, out_features=768, bias=False)
          (act_fn): SiLU()
        )
        (input_layernorm): LlamaRMSNorm()
        (post_attention_layernorm): LlamaRMSNorm()
      )
    )
    (norm): LlamaRMSNorm()
  )
  (lm_head): Linear(in_features=768, out_features=32000, bias=False)
)
capturing graph...
Warming up...
Start benchmark...
Prefix Length :1004544, Decode Length :1, inference time:0.00944944727420807s
>>>> Flash Attention installed
>>>> Flash RoPE installed
LlamaForCausalLM(
  (model): LlamaModel(
    (embed_tokens): Embedding(32000, 768, padding_idx=1)
    (layers): ModuleList(
      (0-1): 2 x LlamaDecoderLayer(
        (self_attn): LlamaAttention(
          (q_proj): Linear(in_features=768, out_features=768, bias=False)
          (k_proj): Linear(in_features=768, out_features=768, bias=False)
          (v_proj): Linear(in_features=768, out_features=768, bias=False)
          (o_proj): Linear(in_features=768, out_features=768, bias=False)
          (rotary_emb): LlamaRotaryEmbedding()
        )
        (mlp): LlamaMLP(
          (gate_proj): Linear(in_features=768, out_features=3072, bias=False)
          (up_proj): Linear(in_features=768, out_features=3072, bias=False)
          (down_proj): Linear(in_features=3072, out_features=768, bias=False)
          (act_fn): SiLU()
        )
        (input_layernorm): LlamaRMSNorm()
        (post_attention_layernorm): LlamaRMSNorm()
      )
    )
    (norm): LlamaRMSNorm()
  )
  (lm_head): Linear(in_features=768, out_features=32000, bias=False)
)
capturing graph...
Warming up...
Start benchmark...
Prefix Length :1005568, Decode Length :1, inference time:0.009460434556007384s
>>>> Flash Attention installed
>>>> Flash RoPE installed
LlamaForCausalLM(
  (model): LlamaModel(
    (embed_tokens): Embedding(32000, 768, padding_idx=1)
    (layers): ModuleList(
      (0-1): 2 x LlamaDecoderLayer(
        (self_attn): LlamaAttention(
          (q_proj): Linear(in_features=768, out_features=768, bias=False)
          (k_proj): Linear(in_features=768, out_features=768, bias=False)
          (v_proj): Linear(in_features=768, out_features=768, bias=False)
          (o_proj): Linear(in_features=768, out_features=768, bias=False)
          (rotary_emb): LlamaRotaryEmbedding()
        )
        (mlp): LlamaMLP(
          (gate_proj): Linear(in_features=768, out_features=3072, bias=False)
          (up_proj): Linear(in_features=768, out_features=3072, bias=False)
          (down_proj): Linear(in_features=3072, out_features=768, bias=False)
          (act_fn): SiLU()
        )
        (input_layernorm): LlamaRMSNorm()
        (post_attention_layernorm): LlamaRMSNorm()
      )
    )
    (norm): LlamaRMSNorm()
  )
  (lm_head): Linear(in_features=768, out_features=32000, bias=False)
)
capturing graph...
Warming up...
Start benchmark...
Prefix Length :1006592, Decode Length :1, inference time:0.009472595572471619s
>>>> Flash Attention installed
>>>> Flash RoPE installed
LlamaForCausalLM(
  (model): LlamaModel(
    (embed_tokens): Embedding(32000, 768, padding_idx=1)
    (layers): ModuleList(
      (0-1): 2 x LlamaDecoderLayer(
        (self_attn): LlamaAttention(
          (q_proj): Linear(in_features=768, out_features=768, bias=False)
          (k_proj): Linear(in_features=768, out_features=768, bias=False)
          (v_proj): Linear(in_features=768, out_features=768, bias=False)
          (o_proj): Linear(in_features=768, out_features=768, bias=False)
          (rotary_emb): LlamaRotaryEmbedding()
        )
        (mlp): LlamaMLP(
          (gate_proj): Linear(in_features=768, out_features=3072, bias=False)
          (up_proj): Linear(in_features=768, out_features=3072, bias=False)
          (down_proj): Linear(in_features=3072, out_features=768, bias=False)
          (act_fn): SiLU()
        )
        (input_layernorm): LlamaRMSNorm()
        (post_attention_layernorm): LlamaRMSNorm()
      )
    )
    (norm): LlamaRMSNorm()
  )
  (lm_head): Linear(in_features=768, out_features=32000, bias=False)
)
capturing graph...
Warming up...
Start benchmark...
Prefix Length :1007616, Decode Length :1, inference time:0.009479911923408508s
>>>> Flash Attention installed
>>>> Flash RoPE installed
LlamaForCausalLM(
  (model): LlamaModel(
    (embed_tokens): Embedding(32000, 768, padding_idx=1)
    (layers): ModuleList(
      (0-1): 2 x LlamaDecoderLayer(
        (self_attn): LlamaAttention(
          (q_proj): Linear(in_features=768, out_features=768, bias=False)
          (k_proj): Linear(in_features=768, out_features=768, bias=False)
          (v_proj): Linear(in_features=768, out_features=768, bias=False)
          (o_proj): Linear(in_features=768, out_features=768, bias=False)
          (rotary_emb): LlamaRotaryEmbedding()
        )
        (mlp): LlamaMLP(
          (gate_proj): Linear(in_features=768, out_features=3072, bias=False)
          (up_proj): Linear(in_features=768, out_features=3072, bias=False)
          (down_proj): Linear(in_features=3072, out_features=768, bias=False)
          (act_fn): SiLU()
        )
        (input_layernorm): LlamaRMSNorm()
        (post_attention_layernorm): LlamaRMSNorm()
      )
    )
    (norm): LlamaRMSNorm()
  )
  (lm_head): Linear(in_features=768, out_features=32000, bias=False)
)
capturing graph...
Warming up...
Start benchmark...
Prefix Length :1008640, Decode Length :1, inference time:0.00949441123008728s
>>>> Flash Attention installed
>>>> Flash RoPE installed
capturing graph...
Warming up...
Start benchmark...
Prefix Length :1009664, Decode Length :1, inference time:0.009495694041252136s
>>>> Flash Attention installed
>>>> Flash RoPE installed
…
